weights.npz (npz, 96446 bytes, 4 tensors)

w1 f8 [15, 784]
0	0xbf7bf0b11cea7491	-0.006821338508101197
1	0x3f95039ef70a4735	0.02052162535489473
2	0x3f66b63545507512	0.0027724304623136875
3	0x3f7d1d828dfd073e	0.0071082210341176216
4	0xbf707451f1a0f455	-0.00401718148537807
5	0xbf906b719a02edea	-0.016034865403282618
6	0x3f91478d30378d4e	0.016874509876186487
7	0x3ed5f3fd72a1eca7	5.234023584428617e-06
8	0xbf47bbc9916bcfa5	-0.0007242902964592525
9	0x3f8409ef980143b1	0.009784576250383955
10	0x3f9172328c9cbc4a	0.017037191231050998
11	0xbf752e051ad703c8	-0.00517084116057815
12	0xbf6bac3da18efa56	-0.003378029225557892
13	0xbf8bd190c958734d	-0.013583308357789337
14	0xbf8782daedc91a49	-0.0114800552193063
15	0xbf4707b77c87654e	-0.0007028242044341633
16	0xbf42a9127e1ba3e5	-0.0005694713874763139
17	0xbf4bdafe70dbf98d	-0.0008500807177538747
18	0xbf30481697471a3d	-0.0002484374192842953
19	0x3f89ed40daae206c	0.012659556077565713
20	0x3f7e7607844b1c51	0.007436780321490381
21	0x3f8289868ae64ccf	0.009051371683005986
22	0x3f6734e9502faf1c	0.002832847299478204
23	0x3f85477e48094ce5	0.010390268872618022
24	0xbf750d0a3b26e9a8	-0.005139389004791196
25	0x3f830a51e087e188	0.009297027268062377
26	0x3f7146843ccbee47	0.00421764045017487
27	0xbf6fe81ef0215e57	-0.0038948635347358196
28	0x3f7fc592de9101df	0.007756780346483499
29	0x3f768d924490da32	0.005506106718760994
30	0xbf960fdff56b415f	-0.02154493270319457
31	0xbf7a7e1476452343	-0.006467895440729179
32	0xbf5226d86a0e17be	-0.0011078942700079998
33	0xbf457d9e8aa54432	-0.0006558441284970683
34	0xbf91d4f1f5015467	-0.01741388376133948
35	0xbf8552c352f56931	-0.010411764115521112
36	0xbf78699943242d93	-0.005960081749673124
37	0xbf7b114a362e62c7	-0.006608285798301145
38	0x3f7a5496add47ddb	0.006428326215682979
39	0xbeb88fb6fdc47b09	-1.463972686250878e-06
40	0xbf73a63aaabb9de3	-0.004797200362851114
41	0xbf6e8db381972953	-0.0037296777706831512
42	0xbf7baacc605d659c	-0.00675468287030281
43	0xbf9cb17822f10385	-0.02802074158921954
44	0x3f5ef67da0f3bd7b	0.0018898226588211764
45	0x3f6d8c5f2f3af78d	0.003606973559583565
46	0xbf80ebdc5a2c5a5a	-0.008262368680829347
47	0xbf680f4ea658a5a0	-0.0029369865540231493
48	0x3f87c449743b2a39	0.011604856357185432
49	0xbf9114a9900a3fec	-0.016680383125787943
50	0xbf6c9965655821df	-0.0034911136997417404
51	0x3f816964f5ab07bc	0.00850180506438735
52	0x3f81dad9ca0ef30d	0.008718205908615962
53	0x3f115971dcca6e0a	6.618268452956308e-05
54	0x3f7ed236c36fea3c	0.007524694366106529
55	0xbf3bd8de99abd803	-0.0004249137361250767
56	0x3f6bf987179f3e51	0.0034148825188607197
57	0xbf794c94f68b7dd5	-0.006176549803711369
58	0xbf80baea4ec3fd86	-0.008169012573943101
59	0x3f7041501ebc721e	0.003968537301059642
60	0x3f6c8036be8392bc	0.00347910587525954
61	0x3f700c741e3e6c52	0.003918126665577297
62	0xbf880e6ee2aed215	-0.011746279042065525
63	0xbf6dc95f99824b9c	-0.0036360613995127366
64	0x3f7559513d6b0339	0.005212132781424122
65	0xbf86a08b4b57df97	-0.011048401104730305
66	0xbf69a9ff600acdad	-0.0031328189655483647
67	0x3f80149a036bcc0c	0.007851794461634774
68	0x3f732ba1df30e1a8	0.004680282890199207
69	0x3f859b58ee997566	0.010550207883336337
70	0xbf101ca64a5e817e	-6.146206814472939e-05
71	0x3f4acd3eeb470923	0.000817924234574972
72	0x3f75aaade41bfe1e	0.005289725553438566
73	0x3f4b3e2a5eac7c90	0.0008313853153118101
74	0xbf74e579e1f71354	-0.005101657966808688
75	0xbf8cf911c5e3b45d	-0.01414693722878207
76	0xbf6175374192dc4f	-0.002131088182604247
77	0xbf595693592ea409	-0.0015465201329141218
78	0x3f835e76037ac970	0.009457513791265554
79	0x3f7a78afceb387d8	0.006462752101670653
80	0x3f7e2c31fcf37b84	0.007366366640069514
81	0x3f8106584e93ef4e	0.008312883279806418
82	0x3f8511372415eb53	0.010286742008920468
83	0x3f752b1c87ea5c15	0.005168067406564188
84	0xbf7702f0528a722a	-0.005618036994431233
85	0xbf8bbf172a3117bb	-0.01354806993016299
86	0xbf78ccf4e3e6bdb1	-0.006054836847780563
87	0x3f7fb4fd698ddd35	0.007740964786413775
88	0xbf7368f4affc290d	-0.004738765535657896
89	0x3f8ccecae07b1705	0.01406630036889168
90	0xbf7dd08f832bdf64	-0.007278977008119945
91	0x3f7b9b7a48f280e6	0.006740071940982006
92	0x3f40f072eb6a5818	0.0005169449930970708
93	0xbf9f966b0917c40f	-0.03084723704336417
94	0xbf89fcc3951c1b55	-0.012689140308351258
95	0xbf8d9bd28f7efa88	-0.014457364086294847
96	0x3f808069ba36cc5a	0.008057428355504982
97	0xbf868d1e9ff92a00	-0.011011351830480187
98	0x3f93ed0cea9756cd	0.019458963220890624
99	0xbf65237b10894ab8	-0.0025803950887078562
100	0x3f636e88f9c2fd0a	0.0023720431618979897
101	0xbf8cd207836c4e0b	-0.01407247419186943
102	0x3f7911ce53291b15	0.006120496708325947
103	0xbf7722e710f1b0a4	-0.005648520090385887
104	0x3f701b96c33c6e13	0.003932560841146254
105	0x3f85f1e6c511ece8	0.010715296639537589
106	0xbf4a1b74f48374c3	-0.000796730143544665
107	0x3f82ac99e720cfa7	0.00911827313039011
108	0xbf89fef115b6be80	-0.012693294024614277
109	0xbf7d7dab32d904a5	-0.007199925179123633
110	0xbf8fea0f31b3ba54	-0.015583151535307461
111	0xbf439a6b1daa8c0a	-0.0005982420946860645
112	0x3f401e1e66afce25	0.0004918716853112333
113	0xbf851d6fa379c7fd	-0.010310051132567105
114	0xbf6269db81e32d70	-0.0022477423909543146
115	0x3f7783f39981a3cc	0.005741073189803946
116	0xbf91d7bb76ebde8a	-0.01742451585138708
117	0xbf8b8831f1b92775	-0.013443365277584477
118	0xbf7b2d71c5eef3b2	-0.006635136057352152
119	0xbf76bf69bca384ee	-0.005553639444969989
120	0x3f76d5bba9d7532a	0.005574925480193818
121	0x3f8fe2404eb8b8be	0.015568258669273024
122	0xbf80792732d5eb58	-0.008043581236724925
123	0x3f913775096108dc	0.01681311483140112
124	0xbf9628c020556fff	-0.021639825795645603
125	0xbf88e5ba54c0d048	-0.012156921111547217
126	0xbf7448d99681f0e0	-0.0049522876289495865
127	0x3f77aea660cc7321	0.005781793512849715
128	0xbf8b4a6b0285e0e9	-0.013325534834379886
129	0x3f6a15fe87571fcb	0.0031843158019206667
130	0x3f6ca9e94ec09c3d	0.003498988799055107
131	0x3f0c6afb89e5d2f7	5.420284400062773e-05
132	0xbf2ad98dd285e723	-0.00020484787206581046
133	0xbf7e5b00d60b6928	-0.007411006227551455
134	0xbf70a891e53dd69f	-0.004067010788153218
135	0xbf64b15fde581d89	-0.00252598499605811
136	0x3f7178096ae2b07a	0.004264866625970249
137	0xbf8775f589697b49	-0.011455457931501949
138	0xbf8cb790a1e3c8ce	-0.014021997395023435
139	0x3f521bcf1f698f53	0.0011052630121861264
140	0xbf87c53076fe7e7b	-0.011606577521717334
141	0x3f79b5fef073a6cc	0.006277080399039025
142	0xbf8473af71184182	-0.009986277235868316
143	0xbf54f0d653744be0	-0.0012781231906202548
144	0xbf5b58c1bbb2410c	-0.0016691104818030182
145	0x3f7a47486c6f2b74	0.006415636925292446
146	0xbf7a927ed3c379e2	-0.006487365168338562
147	0x3f828df8603ecc30	0.009059849202321585
148	0x3f8430237bebbfec	0.009857442111268676
149	0xbf8856e32e8e6af1	-0.0118844746191846
150	0x3f77ea4789e5db4c	0.005838660667328476
151	0xbf78d205a44d81c2	-0.0060596676238166575
152	0xbf7030df3b174b46	-0.003952857966811168
153	0x3f583a6813127c3f	0.0014787689545199404
154	0xbf8354aa7b2a2d9e	-0.009438831218423979
155	0x3f3b9862f745ea72	0.0004210702529900196
156	0xbf5e89905cc98ae1	-0.0018638524808458
157	0xbf83045d95b3851e	-0.009285670405406562
158	0xbf61bd4a5c2206f3	-0.002165456041496644
159	0xbf5941296b21ab5e	-0.0015414146878593642
160	0x3f9c4c7f969508a2	0.0276355682046946
161	0x3f62664822942339	0.0022460373771803458
162	0x3f85fa17d305082f	0.010730920913037149
163	0x3f1d47a0112ee776	0.00011169352028064607
164	0xbf82ca388795745a	-0.009174768102349674
165	0xbf720a3a2c53cd6f	-0.0044042847050492625
166	0xbf89e66af40bf75b	-0.012646518299785183
167	0x3f8fd4c8f017f0b7	0.01554257376391664
168	0x3f8334868f8985af	0.009377528434188457
169	0x3f2adb9468eb8f37	0.00020490824359519776
170	0xbf6edd3925222814	-0.003767596827917616
171	0x3f85b4d9c522e0af	0.010598851517315514
172	0x3f8a139f80171e31	0.012732740494256852
173	0x3f7c3ef1516c2148	0.0068959642874307295
174	0xbf81466d6d806624	-0.008435110954496734
175	0x3f7033b603f1d8fb	0.003955565450374228
176	0xbf7fd20afa32ca34	-0.007768671875214173
177	0xbf9013415e489f2e	-0.015698453311556886
178	0x3f9008d18ecebc80	0.015658640233308763
179	0x3f97b9f790abc130	0.02317034550191116
180	0xbf89d9ba5666e183	-0.012622314225936964
181	0x3f846394d0dc7835	0.009955561279238004
182	0x3f74322436a1058f	0.004930631121227504
183	0xbf8273b2ef1a098d	-0.009009740754895268
184	0x3f92db61e1cab800	0.01841500225662429
185	0xbf816ead56bb3eed	-0.008511881074269445
186	0xbf82f7520b7ad36f	-0.00926078889401946
187	0xbf7e6f8210c18f14	-0.007430561130693087
188	0xbf5f223523279262	-0.0019002455634275152
189	0x3f89e6c3a0322831	0.012647178961078339
190	0xbf8555404261d953	-0.01041650965292421
191	0x3f513f4c522b9d34	0.0010526891061831247
192	0xbf6f60c1c6574c55	-0.0038303169883220725
193	0x3f907a18977e117d	0.016090759512296316
194	0x3f810bad5a9ebab8	0.008323053672794387
195	0x3f96d817b0183e5a	0.022308702586143127
196	0x3f8f6c577db9eeb0	0.015343364261972553
197	0xbf8894bfb9a3ad7d	-0.012002466061366896
198	0xbf937a3631671efe	-0.019020888104733118
199	0xbf7411173247ee91	-0.004899111376740387
200	0xbf75a91d54f3fbe4	-0.0052882333541210726
201	0x3f6dc11be6359356	0.003632120600445192
202	0x3f9136b2dc6b42a8	0.016810221389109842
203	0xbf990e9e3918024f	-0.02446982596848307
204	0xbf81ff40eb74fdf7	-0.008787638841226004
205	0x3f8e4e24d6d7985f	0.014797485166990918
206	0xbf861b9e4d1aa19c	-0.010794865348842823
207	0x3f84b8d6c6c16c90	0.010118177357233443
208	0xbf55891b84d52235	-0.0013144272555384421
209	0x3f6e2ef71842750c	0.003684504134141014
210	0xbf69e0e19961f56e	-0.003158989547101746
211	0x3f74d7cc747645a0	0.00508861413199338
212	0x3f7d7b6efbf0dabb	0.00719779351407251
213	0xbf620a5de2578eac	-0.002202208869435859
214	0xbf8343408ff6ec31	-0.009405617135476248
215	0x3f8f42a2683279ea	0.015263813786359177
216	0x3f8726b49dcffc11	0.011304293695500818
217	0x3f40abc832b15954	0.0005087592629802553
218	0xbf7a62cc21f45f82	-0.0064418767863329025
219	0xbf70f72515f68eab	-0.004141945711498766
220	0xbf8bb49092639e0b	-0.013527993647996636
221	0x3f40cc47fdeb1b66	0.0005126334688946132
222	0xbf8c4fb4fa33a5a5	-0.013823903928328838
223	0xbf68cb2a13b631db	-0.003026563817632983
224	0xbf8475eea2c5ac61	-0.009990562765514523
225	0xbf640ce7ed18cbe9	-0.002447560292034624
226	0xbf87fe961331bf64	-0.011716053448452342
227	0xbf8bca7ec15fcbd1	-0.013569822574913378
228	0xbf878269e77c46d8	-0.011479213120341766
229	0x3f6f59d6264c1413	0.0038270170792906815
230	0x3f4e82eb958a910b	0.0009311342538081147
231	0xbf737306a529a675	-0.004748369176562063
232	0x3f72bb9f35e13bbb	0.004573461452379963
233	0xbf8368410b9d8929	-0.00947619263360318
234	0xbf9344df5f442e79	-0.0188174154182392
235	0x3f816a0b29a6115f	0.00850304337360147
236	0xbf443d775ce05ae6	-0.0006176789117969511
237	0x3f886b979481c461	0.011923965663500792
238	0x3f669c037d6e30a8	0.002759939972241627
239	0x3f614735e7f22476	0.0021091511585536417
240	0x3f930d75df2c92f5	0.018606034990756155
241	0x3f73e14c96f01df3	0.004853533914690444
242	0x3f7fd0386c2cc9b3	0.007766933823221955
243	0x3f8c3cd50dd75a14	0.013787903294468364
244	0xbf58e4a336f5e91e	-0.0015193551915602742
245	0x3f719bd9fa38b699	0.004299022173240318
246	0x3f5a05252ce4c4ef	0.001588140777652843
247	0x3f8fa623263553a5	0.015453600505375873
248	0xbf74fe66b4e698c5	-0.00512542838843028
249	0xbf49005ddeff39be	-0.0007629831652538539
250	0x3f850cfc83423e1f	0.010278675800036883
251	0x3f8afa774f7e42fa	0.01317303859085105
252	0x3f7d2deec680100a	0.007123882976888049
253	0xbf933f2e0017c319	-0.018795698886552168
254	0xbf771c7087f9ab48	-0.005642356467073402
255	0x3f77a9113329164c	0.005776469408890938

b1 f8 [15, 1]
0	0x3f05497339de9485	4.060156719213566e-05
1	0xbf06aba3addf1c5c	-4.324048289521744e-05
2	0x3edb4f08ae266228	6.5109076977866955e-06
3	0x3f053df65c7295ae	4.05159767578421e-05
4	0xbe6d1acd6de66ff0	-5.4211722877466954e-08
5	0x3eb36ed48c9becc3	1.1582929339549304e-06
6	0x3ef28b4841f58bc1	1.768500453403952e-05
7	0x3ef8f3f18e44b9dd	2.3796944234872004e-05
8	0x3ef30af629111767	1.8160647020224777e-05
9	0x3eea11e3542fb44d	1.243108511591643e-05
10	0x3ed5ea816d9a63e4	5.225190500412491e-06
11	0x3ef3e7e624cf4b51	1.8983703103557615e-05
12	0x3f05b7c5f68cf16d	4.142353902245291e-05
13	0xbee90073d07dbe62	-1.192177161587967e-05
14	0x3f017d53f5452846	3.335869283434315e-05

w2 f8 [10, 15]
0	0xbf9d12c0de3593a1	-0.028391851008013117
1	0xbf84a1f2de95957c	-0.010074517648443353
2	0x3f932f14beee0394	0.01873428740828194
3	0x3fa33a8857df6481	0.037555943228377416
4	0xbf8225701c9b51dc	-0.008860469697005983
5	0x3f7f1ce5a82f6b2b	0.007595917794754918
6	0xbf86bbf89ff1961c	-0.011100714093298207
7	0xbf9ddfb67027289c	-0.02917370852973332
8	0xbfa64ee5ab453d2a	-0.04357068744377053
9	0x3f9844cc87522ad0	0.023699947127662935
10	0x3fa27de6e3183e56	0.03611680528785814
11	0xbf96b79a314d6ac8	-0.022184762248211226
12	0xbf9b1cd28973add6	-0.026477136268040123
13	0x3f868ca00d41a916	0.011010408787303787
14	0xbf978af5e0063407	-0.02299102954707524
15	0x3fa60cfbd0d5c467	0.04306780742889132
16	0xbf8443656acb1db6	-0.009894172975136378
17	0xbf950ca83b26a1e3	-0.020556095705304044
18	0xbfa5f241eadbfdd1	-0.042863902968743546
19	0xbf4f87e9a0f09fb4	-0.000962246967792338
20	0xbf8b2edbb4242d62	-0.013272968707062464
21	0x3fa92f288e21d50f	0.04918791518222509
22	0x3f9467fdbed9c3a3	0.01992794492111084
23	0xbf8b37c20a2bef24	-0.013289943633473529
24	0xbf8770ad8ce9dc8f	-0.011445384848441513
25	0x3f736693a66b6817	0.004736496694670598
26	0x3f77a9118c076d34	0.005776470702098014
27	0xbf952312015a4471	-0.020641595203930444
28	0xbf950b58f4ecf9cd	-0.02055109972865825
29	0x3f9f7247f3c5b8de	0.030709385160144424
30	0x3f586b7e9cbf60e2	0.001490472454852614
31	0x3f8640e6084d1e3f	0.010865971687635255
32	0x3fa51752c6850dfd	0.04119356797539451
33	0xbf9d54672f158ce7	-0.028642284630575523
34	0xbf7ef839cd11a205	-0.007560945306160698
35	0xbf70d85df306a881	-0.004112593640835383
36	0x3f35770198ba37ac	0.00032752789477618715
37	0xbf8db3e1def0be45	-0.014503254524327444
38	0xbf7dcda302211322	-0.007276188613165842
39	0xbf97e93f97b3be27	-0.023350709566271412
40	0x3f94e4607af67063	0.020402438645405484
41	0x3fa5938ce5278ca1	0.04214134499832168
42	0xbf9e6d3e288ac6ed	-0.02971360323380783
43	0x3f8cd5a4f4ad484c	0.014079369275041519
44	0xbf76c388aba7f59e	-0.0055575693791047025
45	0xbf8c7acfc17ea48a	-0.013906119434823578
46	0x3f9b5416e8aee464	0.026687963439801968
47	0xbf80ea213e451568	-0.00825906726152921
48	0xbf864860b1b5f5df	-0.010880237029364302
49	0xbf65c77038ce6270	-0.002658576186558563
50	0xbf78ff8cc0cd3705	-0.00610308629695822
51	0xbf9d3c9a09951398	-0.02855148967252638
52	0x3f93f944833a08dd	0.01950556803650093
53	0xbf909b32ad76c4dd	-0.01621703323116185
54	0x3fa1c1cc470e8e62	0.034681686090405575
55	0xbf83c6d237f8dfac	-0.00965656503022657
56	0x3fa72314e874940f	0.045189526916409865
57	0xbfa3f3e935c2fd9f	-0.03897026807089365
58	0x3f20b3a93b1c88e5	0.0001274246292775678
59	0xbf6bc5825c508f45	-0.003390078173213159
60	0xbf783ed51cfc00db	-0.005919296716229118
61	0xbf9a1adced30adda	-0.02549309919065288
62	0xbf927581a376da83	-0.01802637634474503
63	0xbf9eb8b61ac4736e	-0.030001492866279227
64	0xbf7ff92a9d9282ab	-0.007805983034956536
65	0x3f87ca4b42ce0e50	0.011616313911651549
66	0xbf7b82a2630c3594	-0.006716379474494789
67	0xbfa2df2e3ec6a7c8	-0.03685898319538655
68	0x3fac2097943f2480	0.05493615803386209
69	0x3f945cd4fb224ddc	0.019885375812533343
70	0x3f8079f906e3eac1	0.008045144579673093
71	0xbf6d47db1585996c	-0.003574302576612334
72	0x3fa44476bae380be	0.03958483725887295
73	0xbf88d06780d665c5	-0.01211624967509096
74	0x3f7390ce8b269187	0.004776770411272563
75	0x3f815b10b330761a	0.008474474399970556
76	0x3f906a60332f1811	0.016030791400929504
77	0xbf7888ad921bb3cc	-0.0059897213084072025
78	0x3f9d3086c0c28dcf	0.028505425944457315
79	0xbf898487e6f2ef95	-0.01245981381941145
80	0x3f6c5d242174b0f6	0.003462381904361429
81	0x3f77810d9a0a0d42	0.0057383090321566094
82	0xbfa50f805afb27ba	-0.04113389120682549
83	0xbf9b530187f53b96	-0.026683830188001766
84	0x3f9cc1cb7184ebc9	0.028083018115676404
85	0xbf9d1514a0884e5b	-0.02840072851002016
86	0x3f7a10435a246a0f	0.00636316594525478
87	0x3f99486c205ca6d3	0.024690331912245633
88	0xbf855c412257360d	-0.010429867611402544
89	0x3f6fd334a5322bcd	0.003884890387387574
90	0xbf8068bf3304ee69	-0.008012288803562488
91	0xbf9763a35cffceed	-0.02284102683184035
92	0x3faa44e3f05c24f2	0.05130684193688663
93	0xbfa6983785da0609	-0.04413007267886477
94	0xbf7a485a5dde8248	-0.006416657442884395
95	0x3f7ec700302211bd	0.00751400063939339
96	0xbf70ba85d8410c65	-0.004084132033372522
97	0xbf7b7a12ac353adb	-0.006708214702782124
98	0xbf8eef1e81dcd927	-0.015104521120161763
99	0x3f7204bfbe1ca013	0.004399060244203684
100	0x3f8282f3bb3e7722	0.009038833762868462
101	0xbf986e670113838c	-0.023858651581466314
102	0x3fa40861f0805ef1	0.039126453979575156
103	0x3f6379c6aabd02fa	0.002377403279666954
104	0x3f8dfacd379dcb0f	0.01463852239587518
105	0x3f96fc46587d13c5	0.022446726942934498
106	0xbfa2eb4810ae49a3	-0.03695130542395766
107	0xbf9724a23d795e86	-0.022600684167939387
108	0x3fa000a9921b703e	0.03125505360159807
109	0x3f7decc284861a20	0.007305869898465406
110	0x3f892864d3ca1f7e	0.012284076417259145
111	0xbf87a329338380a5	-0.01154167355019837
112	0x3fa4031ab7c7e91b	0.039086184438888526
113	0x3f9765963e15511a	0.02284846071172906
114	0xbfa0bf435bd61bfd	-0.03270922180222866
115	0xbf9daf82e902b097	-0.02898983523543616
116	0x3f7873654d346bd4	0.005969424924184136
117	0xbf93e86bbe631766	-0.01944130277185909
118	0xbf229cfde1ae2249	-0.00014200781955888062
119	0x3f22b73615ca68a2	0.00014278922289607138
120	0xbf707ea7af885029	-0.0040270376416807
121	0x3fa8bb13aedf6954	0.048302283379330874
122	0xbf370c701fafc51d	-0.00035169351002569007
123	0xbf764d43b853318f	-0.005444778949094688
124	0xbf8316fc25924f39	-0.009321184059707487
125	0xbf65a4622d5151fb	-0.00264186072539929
126	0x3f99c8de918b324e	0.025180318482670487
127	0xbf7c21da13426d85	-0.006868221145988844
128	0x3f5ea7634f417fe7	0.0018709630794759792
129	0xbf80dd16e9c7dac9	-0.008234194764538032
130	0xbf800e2d9443b25e	-0.007839542472049373
131	0xbf98701c2dc1762f	-0.023865165989596256
132	0xbf5e5d1b1960d17d	-0.001853252853391301
133	0x3f91b42cca828a23	0.0172888754465338
134	0xbf9e4ef469659b7f	-0.029598063404957294
135	0x3f7131c5c7175de4	0.00419785744585208
136	0x3f600552058b96d9	0.0019556619630404057
137	0xbf6c1e1a86a865db	-0.0034323232732844495
138	0xbf2bdfd242c5f951	-0.00021266404781878715
139	0xbf61450968ac1632	-0.0021081146018129488
140	0x3f9eaa3b457b2c79	0.029946256748001752
141	0xbf97e3ce69f0b1a0	-0.02332994958503465
142	0xbf780008a7dbbc0c	-0.005859407244982694
143	0x3faa66a9e143f981	0.05156451105902971
144	0x3f94c261d6cb8cee	0.020272759184888516
145	0xbf89d3ad2429b961	-0.012610771814448087
146	0xbf9dae996fe8a989	-0.02898635621583304
147	0xbf9b6a6a6ba9ec6c	-0.02677313120009865
148	0xbf8da7169f105c12	-0.01447885201382174
149	0xbf802ad7a75f10b2	-0.007894215388553814

b2 f8 [10, 1]
0	0xbf337d053010832a	-0.00029736878065205147
1	0x3f3e2980209070dc	0.0004602372942501662
2	0xbf3b2a7fdaa9fc99	-0.00041452046813356954
3	0xbf27205b47510a79	-0.000176440374760462
4	0x3f40233df8dde9b4	0.0004924824331589612
5	0x3f43f2eb72fdb3d1	0.0006087922720162624
6	0x3f366812d11d1c05	0.0003418966235710366
7	0x3f20e151165dc79f	0.00012878527484932748
8	0xbf406e9ec8eb5b63	-0.0005014682118041732
9	0xbf450ccf0a2cf7ff	-0.0006423960624954982
