weights.npz (npz, 96446 bytes, 4 tensors)

w1 f8 [15, 784]
-0.007527648562367539 -0.004430359651883798 -0.0017126053186919078 -0.009821426768722049 -0.009323583926951892 -0.009373749997416744 -0.002615282798286479 -0.0028344666090462083
-0.0044378786889923486 -0.006137333380860364 -0.012289935455223175 0.008902501894652698 0.004806688890033599 0.011011229666301903 -0.002008182511115345 -0.023498418922093277
-0.00947325262170807 -0.004082248653466826 -0.0045388601187748906 0.002903587917144456 0.010210526129169518 -0.005830710108671877 -0.0021046751293635952 0.009403803276082234
-0.007941686191251266 0.01805862075849512 0.016001220500000843 0.01056061727491805 -0.003195903697991083 0.018672510374178178 -0.00027855804238324284 0.009979833716343358
-0.01875376381732209 -0.012039637351954027 -0.006712625340481905 -0.0029112045602056034 0.01524994012509127 0.008818817958755425 -0.0013997508560183456 -0.015734540516213227
1.6729446882381484e-05 0.012637497139438137 0.02065342762089596 0.005821164281280814 0.007891337366720276 -0.0036777565958875536 0.003382202417128106 0.0032281637060646933
-0.008645990523109753 -0.009669808083410655 0.014903700326916569 -0.01608754512150734 0.005677898201847471 0.013801837425106673 0.013915813608342802 -0.006829053867049309
0.01623238242980217 -0.004015168872324174 0.004811268564048768 0.015612126290316861 0.004935882741119366 -0.013056261807021958 -0.006108531997977731 -0.002386052979513669
0.009420132612154783 -0.002140907119852951 0.003488674172577657 0.0018986780688423372 0.0003382274826574981 0.0006630377202991607 -0.02134012108886408 -0.006782726180219947
0.0068003218725026255 -0.016537094262712878 -0.0103546269135085 0.0020341123159987335 0.0009964251331426653 -0.01621887105825476 0.010209607952629872 0.0010915546610469886
-0.01415918901075446 -0.010149066689997082 0.002878803743228456 0.010471216262080951 -0.003636921435291392 -0.003711033624189611 -0.0023306607827348284 -0.020753286293628766
0.010076739683888909 0.00823338569542034 -0.0011858549033811924 -0.010990029364228417 0.002693218969519984 -0.005867781175616801 -0.012480657450198574 0.013618939377296017
0.0009500222238963493 0.009279508445040788 -0.01601756990237663 0.007768997261402767 0.009097340985942332 -0.014684785732695691 -0.012564477009658737 0.016198104553442977
0.001064567644022329 0.0009320536280836443 -0.011465608033603594 0.002144668281331924 -0.0077914414840306225 -0.0007817379798725313 -0.0022936547354810433 0.022062869473335193
-0.0011564242152050889 -0.015956579564399425 -0.011037129977449545 -0.00626798031493406 -0.012983099378991003 -0.0033817853774239415 -0.00020869505068432808 -0.0021174291830659735
0.002454121661048317 0.013552439510942557 -0.0021912082443227648 -0.01208640507471314 0.008076815908025434 0.00882718109774364 0.005951164077909169 -0.004118959914652662
-0.001256569872084989 -0.009615834057883984 0.009221645943216747 -0.007422890463977133 -0.012721179000780588 -0.008892290259533222 -0.0005484051930072624 0.0006161447514176639
0.016882066007219372 0.006362873172901704 -0.014835869051472191 -0.007629467786918627 0.0013906581136154572 -0.0148759106744917 0.003810778070436858 0.0028113075256539647
0.0029719025259383335 -0.0016053669681287655 0.008178862798684803 0.0068868789126499234 0.0006043616141855414 0.0035984606154851337 0.002035842833661793 0.0065729369637028395
0.004398746405826919 0.0035548832486701903 0.017749847934988884 0.014603561519246121 -0.006465319109285512 -0.00427105596861377 -0.0027693394286891796 0.0014932006217987875
-0.002799167353819165 0.0023445636676144655 -0.008811483514870069 -0.014669096646971243 -0.010010658688017196 -0.032623337325927905 -0.0010718213347412993 0.0041043674770181995
0.012700915619265368 0.0026479367649028997 -0.0006820706747676066 -0.006445263987629877 -0.0012956049851289763 0.016068844863027572 -0.005131111751068402 0.010345638394431096
0.014287599623197976 0.011717735488074924 0.0068952312556909414 0.008726757416169439 0.013856046364456377 0.006759711480416575 -0.0031068828152060342 0.017560037085035823
0.01002386483536878 0.011734260272314443 -0.005112221383891455 0.011923293125979242 -0.008037145795583159 0.0005921036214663638 -0.006870036536775442 0.00900984778666052
-0.005362512223016201 0.012126515569627117 -0.010035551070906442 -0.005756758706520665 0.003926202208224746 0.02382167413736915 -0.0018332563691213035 0.006563504449736223
-0.007332113634875887 0.010733587991741449 -0.0009175307073579678 0.005822177243269764 -0.005473333682724911 0.0024971053946453987 0.017362736080661537 0.016834536239333918
0.0016774531866865338 0.0027228464069850894 0.016814169836734727 0.0017595103004411118 0.008165533482878948 -0.0014667342187612495 0.011421828146289349 0.012574843093800693
0.006322895966466013 -0.005234444912519023 -0.009350273162166746 -0.0077527360186257525 -0.007103013358563803 0.00579344338087427 -0.0003815405995168809 -0.003161778904952419
-0.01284575179809958 -0.0018647269732215595 0.01416800582227262 -0.013700434221358485 0.004471969193344228 0.016912389228189932 0.018021344864644226 0.0034581036808749356
-0.00807681671542688 0.016204115518576746 0.006349198757230774 -0.0051034825592231985 0.007825911507302307 0.013468734942556815 -0.003076276816132536 0.007614370629313162
0.009154454950352532 0.026198793186397066 0.014145624849256837 -0.0006895819161049739 0.009650634988375111 0.007977099562650655 0.00493773977742942 0.003951867595051483
0.007715558378177757 0.016453161800506454 0.002670634504805379 0.009376710256369143 0.027446709956621733 -0.005270022046085775 0.005604370528099378 0.0037124125320919035
00000000: 8026 42c6 4fd5 7ebf 279d 079d 9125 72bf
00000010: 6c56 6cf5 2f0f 5cbf 9e7b 2c96 411d 84bf
00000020: 0bd5 6140 3e18 83bf 1e33 706d 8b32 83bf
00000030: e96e d442 a56c 65bf 3c0d 66ac 4e38 67bf
00000040: 684d 53fd 732d 72bf 3eb3 7ce2 7523 79bf
00000050: 4513 cd36 772b 89bf 83bf eb93 793b 823f
00000060: 3819 5bb9 2db0 733f 1ab0 713a 0e8d 863f
00000070: 085e b5c6 7673 60bf c6c5 1c33 f80f 98bf
00000080: 856b 9371 b666 83bf e85a 5f47 8cb8 70bf
00000090: 6711 57fc 5697 72bf 7e72 a5e4 43c9 673f
000000a0: 47dc 659e 41e9 843f 0dd0 aa53 f1e1 77bf
000000b0: ada3 2ddb d23d 61bf b3f6 3a1c 4d42 833f
000000c0: 4f6e bb13 bb43 80bf ee3f 4686 f57d 923f
000000d0: 3c6f f9ba 9f62 903f ad1d 920e cea0 853f
000000e0: 4331 a6bb 4b2e 6abf 24b5 90f5 e21e 933f
000000f0: a363 9cae 6d41 32bf bb1f 739b 4e70 843f
00000100: 84d7 16c9 2f34 93bf 0870 75c5 3ca8 88bf
00000110: 0e38 eca4 b27e 7bbf 7dfa 180c 3dd9 67bf
00000120: b667 d350 5c3b 8f3f 9621 c7b5 990f 823f
00000130: 049f 8b09 fbee 56bf f727 bd23 b71c 90bf
00000140: 969b f9d5 c68a f13e a762 5627 b0e1 893f
00000150: a46b ba10 2c26 953f b766 67e3 eed7 773f
00000160: 274c 4b5f 5529 803f 24dd a989 d020 6ebf
00000170: 75fb a318 feb4 6b3f d3d7 6531 f371 6a3f
00000180: f666 4e34 fdb4 81bf 3894 d0ab c3cd 83bf
00000190: 80ab f2cb d485 8e3f a0df ade0 4079 90bf
000001a0: e127 6431 b541 773f 4aa1 ec42 2344 8c3f
000001b0: f6b0 c2e2 e47f 8c3f 5078 5830 c8f8 7bbf
000001c0: 1c4c b0be 389f 903f c4ac e9af 3572 70bf
000001d0: 6a65 2812 fbb4 733f 1216 b41e 40f9 8f3f
000001e0: a431 33ef a537 743f dddd c0cb 3dbd 8abf
000001f0: 43b1 8692 4205 79bf 0be0 6e70 ea8b 63bf
00000200: 780c f2cb dc4a 833f 2f89 08c2 ce89 61bf
00000210: 9eab 48af 4794 6c3f 881b 860d a21b 5f3f
00000220: 4fec 03fa 832a 363f 11bf 8fa9 f6b9 453f
00000230: 626a ad48 2fda 95bf a9c2 f231 34c8 7bbf
00000240: 42fa b680 a7da 7b3f 1fec 1d9c 19ef 90bf
00000250: b27a a57f ce34 85bf 4493 f4bb d7a9 603f
00000260: 9e4f 0657 4f53 503f 91cd 1703 ae9b 90bf
00000270: 5f9b 1762 c6e8 843f fc26 8be4 4fe2 513f
00000280: 1b9f e92d 7eff 8cbf 96ce 25ac 08c9 84bf
00000290: ed78 b8fd 4995 673f d3eb 28db ee71 853f
000002a0: 2a24 ed53 2dcb 6dbf 6da7 9b01 9a66 6ebf
000002b0: 3497 e0fa bf17 63bf efa2 a977 5940 95bf
000002c0: ca0f 241b 1da3 843f 4fa2 6052 aadc 803f
000002d0: 0edc c701 d66d 53bf f48c 9cc5 f081 86bf
000002e0: b44a a4ec 1610 663f 705f fd83 d008 78bf
000002f0: 8d42 a67c 758f 89bf dc81 da19 3fe4 8b3f
00000300: 4fea e830 5d21 4f3f 88f1 5a8a 2201 833f
00000310: 1183 91eb e866 90bf e827 9152 62d2 7f3f
00000320: 1d18 1f70 a0a1 823f f2fb c393 0e13 8ebf
00000330: 205a c88e 67bb 89bf 88c4 4165 3c96 903f
00000340: 9706 cacd 1e71 513f 8ef6 e4ec a18a 4e3f
00000350: a8c0 43dc 477b 87bf 8d7f 2104 b291 613f
00000360: 563f cd25 ebe9 7fbf 5f3a 5f87 b19d 49bf
00000370: 007a 7882 24ca 62bf 1125 601b a697 963f
00000380: 6d9f d00b 65f2 52bf 3b5c 8aed eb56 90bf
00000390: c0d8 5b82 a29a 86bf a30e 6f27 74ac 79bf
000003a0: 002d de19 e296 8abf e9da 2333 1eb4 6bbf
000003b0: 3700 c6d5 a45a 2bbf aabe f822 9258 61bf
000003c0: 2096 c988 aa1a 643f 0b19 d8a3 61c1 8b3f
000003d0: 535e f0f7 4bf3 61bf 7c43 2dd4 c1c0 88bf
000003e0: b83d 72e1 938a 803f 12a1 0b31 fc13 823f
000003f0: 6a6c 6771 3f60 783f bd0f 08e2 0adf 70bf
00000400: cb1b 5ea0 6f96 54bf 6b43 6b66 77b1 83bf
00000410: cb66 ee5d cce2 823f 6d9b 8dfc 7667 7ebf
00000420: 6b06 33be 8f0d 8abf 0e54 cffe 1e36 82bf
00000430: 6adc 382f 5bf8 41bf 06d7 49c7 9830 443f
00000440: 5247 8f45 8849 913f d7b5 fac2 f40f 7a3f
00000450: d10b 12a3 4462 8ebf ee59 17aa 1340 7fbf
00000460: 5299 8bc7 d7c8 563f cde2 c2ee 4277 8ebf
00000470: 2f36 eae5 c737 6f3f 22be 363c bd07 673f
00000480: a15a fc04 8858 683f 7286 13a8 654d 5abf
00000490: a51b e961 14c0 803f ecb3 387b 6a35 7c3f
000004a0: 49d8 16af c0cd 433f 823c 1ad5 847a 6d3f
000004b0: 4bf0 7dcc 78ad 603f dead c354 39ec 7a3f
000004c0: 6c83 4d7f 6b04 723f 6091 6969 211f 6d3f
000004d0: ba1a 8f21 042d 923f 79d3 0ad9 78e8 8d3f
000004e0: 9411 1fe2 607b 7abf 82f7 45db 867e 71bf
000004f0: 0646 e3c8 b9af 66bf a649 91f5 ef76 583f
00000500: 4caf b387 47ee 66bf d24d d308 e834 633f
00000510: 0e73 344c c10b 82bf be84 e2d2 d40a 8ebf
00000520: bb5f 69dd 7780 84bf dd6e cd8d 01b4 a0bf
00000530: a792 1c65 8b8f 51bf bf5a 5ac1 bdcf 703f
00000540: d045 b609 f002 8a3f ac0a d439 20b1 653f
00000550: e39d ef9e 9f59 46bf 64c2 a760 5966 7abf
00000560: dcd8 8942 293a 55bf 524f afec 5974 903f
00000570: 077c 9b52 5c04 75bf e48a 7b14 1830 853f
00000580: 9fb6 f528 d142 8d3f 22bc a2d5 77ff 873f
00000590: 1f63 dd8b 2c3e 7c3f b3de 9e8d 55df 813f
000005a0: 07c9 e50f 8f60 8c3f 2710 d23b 12b0 7b3f
000005b0: 639b ae02 9b73 69bf dbb2 fc23 42fb 913f
000005c0: 87f1 2d5d 6487 843f df13 e6c0 2108 883f
000005d0: 0aa9 757a 8df0 74bf a82a 4b50 3d6b 883f
000005e0: 55ff c272 c775 80bf 1945 53d8 ec66 433f
000005f0: 93e3 f663 c123 7cbf 9a66 af4c c173 823f
00000600: 7ec1 f469 00f7 75bf 9ab1 495e c9d5 883f
00000610: ebcf 2cdd 848d 84bf 53ec 0126 6694 77bf
00000620: 2f16 4fe1 eb14 703f 4583 6c7d b564 983f
00000630: 2ac5 a209 3c09 5ebf a51c 574f 55e2 7a3f
00000640: 2d89 5b44 4708 7ebf 9c69 25cb 7dfb 853f
00000650: a772 ca30 ce10 4ebf b12a 9fcd fed8 773f
00000660: 4baa add2 346b 76bf bf3b 2640 cf74 643f
00000670: e4c5 8a7e 89c7 913f d674 5d9a 123d 913f
00000680: b3f3 f3a4 bf7b 5b3f 491a a408 394e 663f
00000690: b08f 3bd6 bb37 913f 90b4 a1cc ebd3 5c3f
000006a0: 785b 1b5a 17b9 803f e0a2 18e0 ed07 58bf
000006b0: 476f cad2 5364 873f a1bd b8de d6c0 893f
000006c0: c08e 4576 09e6 793f 0f48 649b b670 75bf
000006d0: 4179 856b 3c26 83bf c3e8 783a 55c1 7fbf
000006e0: 99d3 3fa1 0c18 7dbf 6e21 a29d ddba 773f
000006f0: 0c2f a365 3001 39bf 3877 ce1f bbe6 69bf
00000700: 9347 ec9e df4e 8abf 50d1 6b57 3b8d 5ebf
00000710: ffe4 3f8d 1d04 8d3f 08b6 5f27 f90e 8cbf
00000720: 6735 f216 3351 723f 3e79 873a 7b51 913f
00000730: bc59 4bfb 2f74 923f cda9 e546 2b54 6c3f
00000740: 2538 30fd 938a 80bf ad00 dac8 cf97 903f
00000750: bb2d 4a10 9e01 7a3f 6c49 00ab 63e7 74bf
00000760: 93cc e10f 0807 803f 6d31 c600 7f95 8b3f
00000770: f80d 338a 6b33 69bf 9b03 520d 3f30 7f3f
00000780: d4e9 fe24 92bf 823f a191 b83f dbd3 9a3f
00000790: f651 dfa0 61f8 8c3f 58de 87e3 a198 46bf
000007a0: 691f 494d b6c3 833f 6b7d e82d 4c56 803f
000007b0: 9d73 c36d 9839 743f 660b 4361 d52f 703f
000007c0: a874 796e 599a 7f3f d658 65ff 18d9 903f
000007d0: 9758 72fb b9e0 653f 9750 29bf 1834 833f
000007e0: ee00 9686 fd1a 9c3f 32ea 64c5 0496 75bf
000007f0: 8c2a 20c2 9bf4 763f 505d 444d 7e69 6e3f

b1 f8 [15, 1]
1.0515713784868756e-05 1.4593360533287074e-05 5.4298929498728954e-06 2.332652114614685e-05 7.2746596318252614e-06 -7.87581376702563e-06 -5.6668164047970465e-06 3.3040749267942214e-05
4.58678249008545e-06 3.805965337145599e-05 -1.0006190166068587e-05 -2.6334646592536748e-05 4.6993101073792316e-05 1.5408471335634692e-05 2.1325762967060058e-05
00000000: b223 96b2 940d e63e 0697 0733 c09a ee3e
00000010: 47d6 e69b 4dc6 d63e 0fa3 c553 aa75 f83e
00000020: b08a 9c36 1b83 de3e 04d5 149a 4b84 e0be
00000030: 7f15 e4a1 b2c4 d7be c292 1580 a752 013f
00000040: a1b6 a42b 053d d33e 0cc5 72bb 47f4 033f
00000050: 109c fe4d 08fc e4be 0b15 4522 279d fbbe
00000060: 2375 72a8 4ea3 083f 6c83 6516 2e28 f03e
00000070: dcd7 a745 975c f63e

w2 f8 [10, 15]
0.009238393275544234 0.013557773991723879 -0.016487678555863996 -0.013637950253684568 0.055312551613908384 -0.008720458059436775 0.009593063957594574 -0.014603711626473012
0.0016727061159798864 0.007274513681745251 -0.017284095442292546 -0.03141107360277294 -0.023259984295840808 0.004925981760434522 -0.005581763783730361 -0.0025230874990788787
0.0033635281285535946 0.0005876752800717915 0.025303537059186604 -0.0538758235607972 -0.0033940944549218956 -0.005621602870073022 -0.030554442228176937 -0.006597854503190491
0.04253617487592817 -0.019559107679217036 0.012537535662269148 0.04582694730677556 -0.022397490730347403 -0.012127389410692172 0.019612031179068085 -0.0037105408929645357
-0.004387201433264409 0.00815755420261696 0.02168627176634605 0.004267701092019958 0.011938427630169238 -0.020836409191384866 0.01837770512022829 -0.03651426716268109
0.0031607261216456475 0.0536977637765935 0.006322191404976427 0.0036260938754031466 -0.03714856786848346 0.04743070229015374 9.581142951523979e-05 0.0047497450989229355
-0.005694978877022919 -0.021394354818999095 -0.002478173303169726 -0.01162264940295282 -0.025971082742736476 -6.299305997506917e-05 0.013864812508860258 0.016617182739940832
0.020053667344232848 -0.01893232987959256 0.016587851998859666 0.014911994086060679 -0.04577763225303897 -0.009798862133932535 -0.0003398271491494219 -0.034335212932731576
-0.0031103772012127835 0.00398713214037733 -0.01750855764497726 0.05307629177540726 -0.00725855428528631 -0.0065179759007787915 -0.0097665072069344 0.010755688262810016
0.00636505917708251 -0.007617798428514039 0.025948947524977454 0.004231037273000244 0.03581673526570903 0.02904049110898654 -0.031103634148858382 0.011483796673119889
0.011248106545996391 0.014370666872463191 0.005023088639184827 0.003726623619925739 0.031105997739235294 -0.0065158055558666465 -0.01835813767786854 0.0035790743684059843
0.0006821730292083783 -0.00013871754336220035 -0.05137950930791914 0.009945293859353808 -0.017149649492984444 -0.025881938651072085 0.036843757799057346 0.009529687702254343
-0.01650228239862259 -0.023585714429460582 0.014601740431191454 -0.010013446721365296 0.011933963985290157 0.0239679316124682 0.03873344379985668 0.011719143431978166
0.013433395627463825 0.041406522583077005 -0.011981493383416114 -0.031257862264507524 0.020412018203294212 -0.019743158127665535 -0.0035475723087433795 -0.0037734170063106007
0.02158337873683639 0.041686038683656085 -0.02765345604787839 -0.006003241410030218 -0.016958712819793918 0.0030482449981146464 -0.008352977277203737 0.028103472464433926
0.00550821068977718 -0.015522871534045631 0.023399908049447977 -0.0064684005667750635 0.004361210731839884 -0.002646940069749552 -0.012917809367835514 0.008419519597079438
-0.008186978580360294 0.013680140890160406 0.008099572337822514 0.03237134407650698 -0.008594021657136453 -0.03317160851437018 -0.001054329929183397 -0.012283548235951017
-0.012503730019135371 0.00542416089903699 0.039822125696855754 -0.011624292295965314 0.0010309312247385363 -0.0002389881213478235 0.03461425300232415 -0.008275477013930376
-0.006984518539306923 -0.013008477633595129 -0.017942286692913523 -0.015206284148855328 -0.009128599701369026 0.029286887450237938
00000000: 8e6d e327 94eb 823f 8846 359f 2dc4 8b3f
00000010: 67d2 bc60 25e2 90bf 97a7 97b2 36ee 8bbf
00000020: a4e7 7a40 ed51 ac3f c011 5f11 08dc 81bf
00000030: 21fe ba3f 87a5 833f 05f5 affe 8ce8 8dbf
00000040: 77cd 1784 d667 5b3f 7de9 b765 e1cb 7d3f
00000050: 3390 a902 ecb2 91bf 6e5a b6bb 1c15 a0bf
00000060: 10a8 6c1f 77d1 97bf c6f6 fc28 442d 743f
00000070: 2f5e 7b4e e7dc 76bf 9745 6449 4cab 64bf
00000080: 4d48 f669 d48d 6b3f 60d1 e50d c741 433f
00000090: 15bf 91a0 2be9 993f 9b35 7aa8 9c95 abbf
000000a0: 089d de95 eecd 6bbf c625 a687 ad06 77bf
000000b0: c05c 78e8 a949 9fbf 721d 0a15 5a06 7bbf
000000c0: 8c64 fa2f 4dc7 a53f 50e3 487f 4d07 94bf
000000d0: d291 228d 47ad 893f 398e ea2f a176 a73f
000000e0: ad16 cc28 5eef 96bf 15fd 3ca7 3ed6 88bf
000000f0: 65c3 1622 2d15 943f 24e4 2479 9165 6ebf
00000100: e650 d46a 50f8 71bf 2fec 1f64 e8b4 803f
00000110: d8d4 0810 ed34 963f bec5 e849 027b 713f
00000120: e8dd e5a1 2c73 883f 041b 2cc0 2356 95bf
00000130: 3f1e dee9 9ad1 923f a92c 9a7e ffb1 a2bf
00000140: 10df 5eea 85e4 693f eddd 93f6 457e ab3f
00000150: cac0 2c55 4ce5 793f 1938 6d53 78b4 6d3f
00000160: 363f 2d18 2305 a3bf 2a36 5346 d648 a83f
00000170: c8aa 4dd3 cb1d 193f 2cce d3fd 7774 733f
00000180: 449b 7340 9e53 77bf 2005 11d9 66e8 95bf
00000190: 6155 4f29 1b4d 64bf 1ee2 a098 9dcd 87bf
000001a0: 1449 16dc 2998 9abf 86a9 a587 6483 10bf
000001b0: 6d68 53a2 2765 8c3f 3ec6 ad41 1804 913f
000001c0: bc24 a2d5 f288 943f 1703 ae26 ff62 93bf
000001d0: 554b 62e7 67fc 903f f59a 57f7 2d8a 8e3f
000001e0: 3d8a d472 2a70 a7bf b7dc 3903 6d11 84bf
000001f0: 6e7b ec7d 5a45 36bf 1268 4b91 6294 a1bf
00000200: 2817 700b ef7a 69bf 4630 5da2 cf54 703f
00000210: 9cf4 f069 c3ed 91bf 7b95 bcd2 d02c ab3f
00000220: f13f 5854 25bb 7dbf 3d85 47d5 97b2 7abf
00000230: 8442 6668 7600 84bf 348c ad0a 1407 863f
00000240: f3f3 0a90 3f12 7a3f 6047 e331 d733 7fbf
00000250: 410c f163 5c92 9a3f 947a 736b 9054 713f
00000260: 5c3e 3b35 9256 a23f ff9f 4a5e cabc 9d3f
00000270: b60a d38d a1d9 9fbf a3e2 2819 d184 873f
00000280: 7e4a 0e4e 3f09 873f 6159 e941 5e6e 8d3f
00000290: c221 e216 1793 743f 4b7f 4ed2 4b87 6e3f
000002a0: e473 ff2b 40da 9f3f a30b 503c 51b0 7abf
000002b0: 4184 c4c3 79cc 92bf f898 97eb dc51 6d3f
000002c0: 7188 e26c 7b5a 463f 3278 ce9f 962e 22bf
000002d0: f2f6 5240 6a4e aabf f211 00bf 325e 843f
000002e0: d746 d77e ad8f 91bf 92f4 4080 cb80 9abf
000002f0: 6f0d 9e5d 2fdd a23f ee9e 2d08 4d84 833f
00000300: d983 d86c f9e5 90bf 6762 8280 da26 98bf
00000310: 45e5 ee6c 84e7 8d3f 880d 8211 ee81 84bf
00000320: d64a 3a88 d570 883f 5498 b6a9 0c8b 983f
00000330: 5380 c3b4 ded4 a33f 2247 38ce 3400 883f
00000340: 444b 27d7 f782 8b3f b4b9 ab58 3c33 a53f
00000350: 707f e9d1 c089 88bf 4c7e 56d0 0701 a0bf
00000360: e696 835a e3e6 943f d28d e9e9 8c37 94bf
00000370: 26dd 7a61 cc0f 6dbf d45b 5cd4 6de9 6ebf
00000380: 2a61 3f07 f419 963f 3433 b159 df57 a53f
00000390: e056 6305 3051 9cbf 39cb 6ad8 da96 78bf
000003a0: c9e8 c5f3 9f5d 91bf 3396 7712 a2f8 683f
000003b0: 7cac d6a1 5d1b 81bf 681c 8e1c 28c7 9c3f
000003c0: b166 5a0c c78f 763f fe3f a18c 74ca 8fbf
000003d0: 7207 353f 25f6 973f 4883 440e 9c7e 7abf
000003e0: 4f6e 6d97 0fdd 713f 3ce8 1621 09af 65bf
000003f0: 90a1 2a06 a774 8abf c636 8aca 403e 813f
00000400: 6dac 0baa 55c4 80bf 25c3 d26d 5504 8c3f
00000410: ed96 6b32 8296 803f deb6 4510 fa92 a03f
00000420: da0a ab0f be99 81bf b02a 737b defb a0bf
00000430: a28f 2924 2e46 51bf 4234 9eef 1d28 89bf
00000440: ace3 143c 8e9b 89bf 9ab4 b61a a537 763f
00000450: 94e6 0ccf 9063 a43f 8fa5 001a 7ace 87bf
00000460: 5364 42f9 09e4 503f 0d01 a554 1c53 2fbf
00000470: e4ab 3d99 f5b8 a13f f9ac 11b9 bbf2 80bf
00000480: fb28 466b cc9b 7cbf 3a6a 0e50 30a4 8abf
00000490: fdfe 3e7a 765f 92bf 5e75 e7e8 7824 8fbf
000004a0: fcbd 67e9 03b2 82bf 4f9d 33bf 61fd 9d3f

b2 f8 [10, 1]
-0.0005025474718171854 0.0012497874486837293 -0.00044202156391836455 -0.00018562996626726318 0.0008368067962542943 0.0003441888418726551 0.00012824263508841188 -0.00023410887695182302
-0.00108444265929356 -0.00011027518365089398
00000000: e3de 627a ac77 40bf 77e1 040e fd79 543f
00000010: 8787 4129 e4f7 3cbf 6ac1 bf44 b554 28bf
00000020: 827f 57e9 a46b 4b3f 5a2c cad1 878e 363f
00000030: d5a5 e9d8 1bcf 203f 608b bff0 63af 2ebf
00000040: 962c 6370 7bc4 51bf 4498 b73a 71e8 1cbf
